app/src/main/ml/BookPricing .tflite (tflite, 41256 bytes, 6 tensors)

arith.constant f4 [2, 64]
00000000: 74e0 0a3e ed12 663e 4c97 063e cb26 ea3d
00000010: c0b7 89be 585c 523d 2d5f 2abe 3919 423e
00000020: 84bc 7cbe cbe6 8d3d a544 c8bc 82fe 643e
00000030: a411 673e 7e92 513e 647a 203e 0cb3 a93d
00000040: d738 923d 1abc 0dbe 9a2d a63d 24aa 3fbe
00000050: 041b 97be 2ab6 88bd fe1f 0abd 47c7 97be
00000060: a873 9cbd 0637 333c 8105 883d 9bed 6c3e
00000070: f46d c03c 0f48 8f3e 24ab d83d 248a 57be
00000080: 9028 513d 3bc6 f13d ea70 98be 928b fd3b
00000090: cea7 80bd e8aa 53be 38a4 823e 0457 223e
000000a0: c5ce 17be b4e0 993e 4995 a83e ed14 94bd
000000b0: 8784 123e 6932 b43d 0502 593e fca1 19bd
000000c0: 71a3 71be e25b 743c 85e0 95be 73b3 4bbe
000000d0: c222 373e 64fb 373e a59b cb3d 191b b0bd
000000e0: ec97 74bd b036 8ebd ac5c 7c3d 7819 47bd
000000f0: 56f5 8fbe a0c2 c4bc 3029 af3d b14b 873e
00000100: e42f aabd 1d1b 51be 0660 97bd 9731 56be
00000110: d7e9 5bbe cbe1 98be 8faa 15be b9e7 0f3e
00000120: e32e 00be b2c9 1a3e d909 abbd 64e6 97bc
00000130: f7f9 45be 8adb 653e b399 aabc a4eb 55be
00000140: ce1b 2f3e 0124 93be 29b8 7abe 7c71 97be
00000150: ddcb 9dbc 7574 fa3d f201 863e d54a 133d
00000160: 5c88 0f3e 24bf 6fbe 9774 abbd 65d2 7d3d
00000170: de99 4ebd 0721 82be d7b5 4fbe 3d51 77be
00000180: 45d0 cfbd 6578 22be a646 5c3e af4e 12be
00000190: efec 41bc 922d e63d 91bd 303d 5847 f33d
000001a0: a768 803e 52ef 843c 4a97 593d a9ab 0abd
000001b0: 368d 91bc 8992 b53e 044b 22bd 8ff3 65be
000001c0: af69 9d3e cf56 59be 3734 d73d 0a26 e43d
000001d0: cfe8 bfbd dcd0 41be cc98 90be 5d74 c13d
000001e0: 34a3 8bbe 9c3c 08bd 263b 81be da48 b8bc
000001f0: ecd0 2cbe 007f 8c3e 4973 8bbe 32bd 843e
0.13562185 0.22468157 0.13143653 0.114331804 -0.26898003 0.051357597 -0.16637869 0.18954934
-0.24681288 0.06928786 -0.024446795 0.22362712 0.22565323 0.20466039 0.15671688 0.082861036
0.071397476 -0.13841286 0.081141666 -0.18717247 -0.295128 -0.0667537 -0.033721916 -0.29644224
-0.07639247 0.010938412 0.06641675 0.23137514 0.02348993 0.27984664 0.105795175 -0.2104879
0.051064074 0.118053876 -0.29773647 0.0077375853 -0.06282006 -0.20670664 0.25515914 0.15853506
-0.1482497 0.30054247 0.32926396 -0.07230554 0.14308368 0.087986775 0.21192177 -0.037507996
-0.23597504 0.014914485 -0.29272857 -0.19892673 0.17884353 0.17966992 0.09941796 -0.085989185
-0.059715196 -0.069440246 0.061611816 -0.048608273 -0.28116864 -0.024018586 0.08552778 0.26424935
-0.08309916 -0.20420499 -0.07391362 -0.20917355 -0.21475922 -0.29859766 -0.14615844 0.14053239
-0.12517886 0.15116003 -0.08351488 -0.018542476 -0.19333635 0.22447029 -0.020825243 -0.20890671
0.1710045 -0.28738406 -0.24484314 -0.2957877 -0.019262249 0.12229244 0.2617336 0.035960037
0.1401686 -0.23412758 -0.08371847 0.061968226 -0.050439708 -0.25415823 -0.2028421 -0.24152084
-0.10147146 -0.1586624 0.21511325 -0.14287828 -0.0118362745 0.112391606 0.043149535 0.11878842
0.25079843 0.016227398 0.053122796 -0.033855114 -0.01776753 0.3546336 -0.03962232 -0.22456191
0.30744693 -0.21224521 0.10508006 0.11140068 -0.093705766 -0.1892733 -0.28241575 0.09446023
-0.27272952 -0.033260927 -0.2524044 -0.022495676 -0.16876572 0.27440643 -0.27236393 0.25925595

arith.constant1 f4 [64, 128]
00000000: 71d5 0a3e 79af ccbd 690a 2d3e eec9 0f3e
00000010: cd53 f33d 52bd f9bd 3b0e 0a3d 57c2 ecbc
00000020: fa86 eebd 0415 793c 20a1 803d 2fe9 0e3e
00000030: ab48 b33d dfb7 023d 568d fd3d a344 b3bc
00000040: 22cf 1f3e 2b1b d73d 2a44 1a3d 5e4f 49bd
00000050: d18e 093d 5b95 78bb 00df 5bbb 52c6 163e
00000060: 1595 a83b 62e8 0b3e 0405 40be ae3b 313d
00000070: a37d 1ebe 810a 063e c4c6 39be bfad fdbd
00000080: 2609 0f3e 1182 3bbe 3b76 dd3d 3087 fbbd
00000090: 43cb 10be 5ded d83d f503 88bd 3559 ddbd
000000a0: ddd7 ffbd abc9 2fbe 5a46 bd3d 300c f33d
000000b0: 5fca 3fbe f7a3 88bd 6ecc 23be 329e 163d
000000c0: 49fe 213e 2241 36be b118 d2bd d274 0dbe
000000d0: 1030 6fbc 9183 ec3d 7cd0 d03d 54d5 dabd
000000e0: 4102 26bc 485c d53c e20b 38be 2bbc db3d
000000f0: fe4b 183e af0e ec3d 57c6 5fbd e505 12be
00000100: e47e 35bd 6479 083e 8ba1 c2bc 4a46 1bbe
00000110: c894 0fbe 2268 18be 9319 1bbd 7c2a e63d
00000120: e450 96bd 27ae 063e ba86 aa3c ff02 b4bc
00000130: 10bc 0e3e f67b d53d b0d4 d4bd b955 30be
00000140: 7e55 a53c 491d 82bd 8f95 18bc 98a1 53be
00000150: 4077 6abc f2c9 c23d d5f5 623d 41ef dcba
00000160: ac7f d6bb bc21 053e c979 423d acf3 0a3e
00000170: 47de db3c f733 bd3d da8b dc3d 1eba 8a3d
00000180: 2a1e 0ebe 371c 173e 97c7 233d 855c abbd
00000190: 0bc0 0abe b8f5 aebd 1e94 9abd ab5c 8e3d
000001a0: b8ac ba3d 2905 623d b26d d43d 952f 03be
000001b0: 3665 06be 6b09 93bd de8e 2abd c3d0 763d
000001c0: f337 53bd 28f1 1e3e 6dd7 373d 6296 a03d
000001d0: 9ca6 2bbe f713 04be 8088 c4bc 7db5 f7bd
000001e0: e687 e3bd 98cc 003e 57e4 e0bd 00df 22bd
000001f0: 2eb6 8f3d 9be7 b33d e966 c43d f0aa 0d3d
00000200: a376 cbbd 8a42 0a3d 7109 16be 5af5 933d
00000210: 4723 ed3d d03e abbd 7bb8 d13d 9e23 9c3d
00000220: 0de3 1dbd 0e02 d63c 741f 0d3d 787c 753d
00000230: 054b 6b3d 3e15 e7bd 82cc 99bd 1a02 2d3d
00000240: b7dd 2fbd 1aef 813d 1e6c b73d 6564 24be
00000250: d4eb 89bd 3f33 6dbd 1eb0 d2bd 8d00 8abd
00000260: 4800 183e fb8d c73d 74ca a6bd 2311 853d
00000270: d8ad 1ebe 9300 353d a00b fa3c 9f26 21be
00000280: 6a3e a73d b09f 94bb 8db6 9f3d deae b8bd
00000290: b2c9 ebbd c344 96bd 58ac 96bd 4817 41bd
000002a0: fb68 f33d 3605 803d 5fe4 d3bd 4590 6b3d
000002b0: 39c3 23be 3cdc 2abe 29da e1bc 206d a0bd
000002c0: 9962 c0bd 5f0a 1d3e 0016 b23c 7f8b 6a3d
000002d0: f639 a0bd a7a9 a33d a01f f9bc 0af5 83bd
000002e0: e55d 1ebe a3b6 38bc 23b2 a63d a423 7e3c
000002f0: 9093 0cbe 7544 df3d b239 f53d 306e 113e
00000300: 9b5b 74bd a232 043e d9d9 fbbd fe45 0c3e
00000310: 4304 1cbe 94de f03d 9550 83bd ecaa 7b3d
00000320: 0097 c9bd 40f9 49bc 889f 8cbc c431 1abe
00000330: 5337 ce3d 0237 f2bd 60c7 d1bb 003d 963a
00000340: 1f07 61bd c048 293e cd5e 18be b5e5 223e
00000350: 6862 6e3d d0c7 433d 1fe6 2abe 25b6 dbbd
00000360: c4f4 c4bd 0a7f 98bd e0c0 2c3d 7e5a c3bc
00000370: ace9 0abd 9e14 26be 50df 743d 4ec4 c9bc
00000380: 4c07 76bd 998d f0bd a135 6c3d 7b06 6ebd
00000390: 4b2a 2c3e 578d e4bd c774 47bb a482 163d
000003a0: 45d6 22be 43c0 02be 01a2 07be de31 92bb
000003b0: 535a cfbd 394f 263e 7a6b 0d3e 91aa b93d
000003c0: 838b c93d d441 73bd 8106 16bd b2f0 4ebd
000003d0: a712 a33d 3110 0a3e 28de 223d b9bb a53d
000003e0: 571d 263e 87d3 0b3d 857c 423c a6c0 0abe
000003f0: 0d2f 0b3d cdfc 15bd 5176 e7bd ec20 e93d
0.13557984 -0.09994406 0.16898502 0.14041874 0.11881218 -0.12194313 0.033704977 -0.028901262
-0.116468385 0.015202764 0.06280732 0.1395614 0.08754095 0.031913634 0.12380473 -0.021883314
0.15606359 0.10503229 0.037662663 -0.049147956 0.033583466 -0.003793082 -0.0033549666 0.1472409
0.005144725 0.13662866 -0.18751913 0.043269806 -0.15477614 0.13089944 -0.1814223 -0.12386655
0.13968334 -0.18311335 0.10813566 -0.12281644 -0.14140038 0.105921485 -0.0664138 -0.108080305
-0.124923445 -0.17166774 0.09241934 0.11867559 -0.18729542 -0.06671899 -0.15995952 0.03677196
0.15819658 -0.17798284 -0.10258616 -0.13814095 -0.014598861 0.11548532 0.10196015 -0.1068522
-0.010132373 0.02604498 -0.17973283 0.107292496 0.14872739 0.11526238 -0.05463251 -0.14260061
-0.044310465 0.13327557 -0.02375867 -0.15163532 -0.140216 -0.14883474 -0.037866186 0.11238572
-0.073396474 0.13152371 0.020816196 -0.021974085 0.13938928 0.10424034 -0.103921294 -0.172202
0.020182367 -0.06353242 -0.009313001 -0.20667112 -0.014310658 0.09511174 0.055410225 -0.0016855971
-0.0065459814 0.1300115 0.047479425 0.13569516 0.026839389 0.09238427 0.10768862 0.0677378
-0.13878694 0.14756857 0.039985266 -0.08367256 -0.13549821 -0.08542961 -0.07547782 0.06951269
0.09114975 0.055180702 0.10372485 -0.1281112 -0.13124546 -0.07179531 -0.041640155 0.060257684
-0.05156703 0.15521681 0.04488318 0.07841183 -0.16762775 -0.12898241 -0.02399087 -0.12095163
-0.11109905 0.12578046 -0.10981052 -0.03976345 0.0701717 0.087844096 0.09589941 0.034586847
-0.099347375 0.033754863 -0.14652039 0.072245315 0.11578994 -0.0836159 0.10240265 0.07623981
-0.03854661 0.026124027 0.034453824 0.059933156 0.05744459 -0.112833485 -0.0750971 0.042238332
-0.042936053 0.06344433 0.089561686 -0.16053922 -0.06734434 -0.0579102 -0.10287498 -0.06738386
0.14843857 0.097438775 -0.081440836 0.06497409 -0.15496004 0.04419 0.030523121 -0.15737389
0.081662014 -0.004535638 0.07798491 -0.09017728 -0.1151308 -0.07337334 -0.07357091 -0.047141343
0.11885258 0.06250994 -0.10346293 0.057510633 -0.1599244 -0.16685575 -0.027569847 -0.07833314
-0.09393806 0.15335988 0.021739006 0.05726194 -0.07823555 0.07991343 -0.030410588 -0.06443222
-0.15465505 -0.011274013 0.08139446 0.015511427 -0.13728166 0.10901729 0.11973895 0.1420219
-0.059657674 0.1290994 -0.122974105 0.13698575 -0.15236 0.117612034 -0.06411854 0.0614423
-0.09843254 -0.012327492 -0.017165914 -0.15058047 0.10069146 -0.11826898 -0.006401941 0.0011462271
-0.05493843 0.16531658 -0.14879914 0.15907939 0.058199316 0.047797978 -0.16689347 -0.10728101
-0.09616998 -0.07446106 0.042176127 -0.023846861 -0.033914253 -0.16218802 0.05978328 -0.024629738
-0.060065553 -0.117457576 0.057668332 -0.05811165 0.16813008 -0.11159771 -0.0030434595 0.036745682
-0.1590205 -0.12768655 -0.13245393 -0.004461511 -0.1012465 0.16241159 0.1381053 0.09065736
0.09841063 -0.05938895 -0.036627296 -0.050522514 0.07962542 0.13482739 0.039762646 0.08092446
0.1622213 0.034137275 0.011870508 -0.13550052 0.033980418 -0.036618043 -0.11301864 0.113832325

arith.constant2 f4 [2]
00000000: 4080 54bb 2e80 543b
-0.0032425076 0.0032425034

sequential_1/dense_1_2/Add/ReadVariableOp f4 [64]
00000000: 8060 c4bb 4b28 c0bb fb3a dcba 45a5 733b
00000010: 8293 c9ba 0000 0000 3d3c 36bc 93cc 623b
00000020: 3156 82bb 4d5b 63bb a0fa 4dbc 74dc 2a3c
00000030: 0000 0000 fa8a 97bc de24 2f3b e827 aabb
00000040: 0643 763b 2ff7 1fbc 15c7 61bc ca4a a33b
00000050: fbf9 673c f8b9 293b e2d5 1c3c 4ea6 31bb
00000060: a92d a53a 05ac 56bb f59a 3abc af7f e2bb
00000070: be53 acbc ac4d 10bc 7691 813b 0000 0000
00000080: c534 c4bb fa0c 94bc a5dd 96ba 6834 b3bb
00000090: db08 01bb 74f2 2cbb 2737 01bc 4c06 ccbc
000000a0: 71ac c4bb 5097 283c e774 d8bb 1263 7cbb
000000b0: 5fed 0cbc 3f78 a13b 6b53 0abc 735a 2ebc
000000c0: 5829 463c f79c 90bc 6149 ddbb e83e c5bb
000000d0: 17f5 65bb 5872 69ba 2427 1ab9 cd52 97ba
000000e0: 0000 0000 7b1e 9eba 6164 923b 146d e2ba
000000f0: 69a2 0fbb 0000 0000 9b21 abbb a915 acbb
-0.005992949 -0.0058641783 -0.0016802246 0.0037177366 -0.0015379044 0.0 -0.01112276 0.00346068
-0.00397756 -0.003469187 -0.012571961 0.010428537 0.0 -0.018498886 0.0026724855 -0.0051927455
0.003757657 -0.009763523 -0.013780375 0.004983281 0.014158721 0.00258982 0.009572478 -0.0027107182
0.0012602109 -0.003275634 -0.011389484 -0.0069121937 -0.021036025 -0.008807581 0.003954108 0.0
-0.005987736 -0.018072594 -0.0011510147 -0.005468894 -0.0019689116 -0.002638963 -0.0078866845 -0.024905346
-0.006002002 0.010289982 -0.0066057327 -0.00385112 -0.008601516 0.0049276645 -0.00844274 -0.010641682
0.012094818 -0.017652972 -0.006753132 -0.006019462 -0.0035088712 -0.0008905283 -0.00014701165 -0.0011545062
0.0 -0.0012063527 0.0044675325 -0.001727494 -0.0021916872 0.0 -0.005222512 -0.0052516055

sequential_1/dense_1/Add/ReadVariableOp f4 [128]
00000000: 96c8 683a 4813 07bb 9d61 65bc ec78 39bb
00000010: bedd ab3c 62eb c23c 04ba 5dbb efa7 153c
00000020: af38 003c dd1c 0cbc 3b97 adbb 4939 99bb
00000030: a1d2 ba3b 2b2d 66bc d4a8 ef3b 24bf adbb
00000040: a88c 2e3b 5718 a43c 20c8 44ba 0551 b3bc
00000050: a9f7 743c 9ee2 843b 0000 0000 4f83 b2ba
00000060: 7e6e 693c 9907 f8bc 43dd debb dda3 68bc
00000070: 2688 a13b 8734 11bc 2100 2b3d 2731 c1bb
00000080: 6307 d9bc 7aab 28bc 1a11 dcbc 20e2 ce3a
00000090: 3472 353b 716d 00bc 2899 723c 16fe 403c
000000a0: d5fe 4ebb b338 053b eff1 e2bb 2a54 4ebc
000000b0: c5d8 983c 37d5 8ebb 79f5 66bc b74f 9bbc
000000c0: aa2e 49bc 1b4b 5abb 2342 8ab9 823c 3fbc
000000d0: 0000 0000 3706 76bc f4c1 cf3c ff44 813b
000000e0: b58e d43b 760d 59bc ecba 26bb 0f02 9abb
000000f0: bc64 1fbc a8cb 603c 8f38 5a3c e818 3c3c
00000100: 41b7 8bbc 0486 0cbb c01d ca3b b62c 953c
00000110: e709 5ebc 6f2b be3c 306e b93b fbff 3d3c
00000120: d09d 56bb d82d 7a3a 51ff d8bb 3757 c2bb
00000130: 9241 85bc 531e e33b 6879 6e39 e289 2d3d
00000140: 8d7b 913c 0839 c0bb d7da 503c f05e f93c
00000150: d4ed f5bb 0000 0000 bdc2 ef3b 5990 8a3c
00000160: acc9 c53a 7aa6 92bc 386d 79bb 5fc4 2cbb
00000170: b8e8 cebc 3793 193b 0000 0000 db5e ac3c
00000180: 8175 bbbc cd45 16bc 174f c5bc 0027 e2bb
00000190: 85ef a0ba f13c 793b 0d8f dabc 2f55 873c
000001a0: d1ee 7fbc 9168 0bbb 2379 66bc a071 3b3d
000001b0: f0b1 c63a 564d 7abc 1a07 a8bb 69c0 e03c
000001c0: 97cd 82bb 005a bcbc f174 2a3c ee5e f83b
000001d0: 321c 053c a823 64bb 0000 0000 4b1e d2bb
000001e0: be53 80bb 9e24 623c c6aa 033c 0000 0000
000001f0: 37fa 3d3b 2aeb 4b3c b7a1 b53c 0639 98bb
0.0008879987 -0.0020610858 -0.014000324 -0.0028300835 0.020979758 0.02379388 -0.0033832798 0.009134277
0.007826014 -0.008551803 -0.005297569 -0.0046760184 0.0057013785 -0.014048855 0.007313827 -0.0053023268
0.002663413 0.020031137 -0.00075066276 -0.021889219 0.014951625 0.004055335 0.0 -0.0013619455
0.014247535 -0.03027706 -0.006801279 -0.014199224 0.0049295602 -0.008862621 0.04174817 -0.005895752
-0.02649278 -0.010294789 -0.026863623 0.0015783943 0.0027686479 -0.007838593 0.014807023 0.011779329
-0.0031584997 0.0020327985 -0.0069258134 -0.012593308 0.018658051 -0.0043589133 -0.014096611 -0.01895891
-0.012279192 -0.0033308927 -0.00026370687 -0.011672141 0.0 -0.01501613 0.025361039 0.0039449926
0.0064867386 -0.013247838 -0.0025441004 -0.0046999524 -0.009728607 0.01372043 0.013319149 0.0114805475
-0.017055156 -0.0021442184 0.0061680973 0.018209796 -0.013552166 0.02321407 0.0056588873 0.011596675
-0.0032747872 0.00095435744 -0.006622233 -0.005930807 -0.016266618 0.006931105 0.00022742676 0.042367823
0.017759109 -0.0058661737 0.012747488 0.030440778 -0.007505158 0.0 0.007316916 0.016914533
0.001509001 -0.017901648 -0.0038059484 -0.0026362163 -0.025257453 0.0023433694 0.0 0.021041324
-0.022883179 -0.009171915 -0.024085565 -0.006901622 -0.0012278414 0.0038030709 -0.02667954 0.01652011
-0.015620903 -0.0021272043 -0.014066967 0.045762658 0.0015159231 -0.015277227 -0.0051277997 0.027435498
-0.0039917934 -0.022992134 0.010403858 0.007579676 0.008124398 -0.0034811292 0.0 -0.0064123026
-0.003916233 0.0138026755 0.008036321 0.0 0.002898825 0.012446204 0.022171838 -0.0046454696

sequential_1/dense_1/MatMul f4 [128, 10]
00000000: f15c 663e 9055 ae3d 09cf 47be 3dc3 8abd
00000010: 7cf2 86bd 0d78 19be 974e 873d 75a3 4d3e
00000020: 28f8 5e3d 7eb6 7b3c 2d17 abbd 276a 933d
00000030: c295 39be 522e 1a3e 038b 11be d5e2 9b3d
00000040: 4730 893d c18b e7bd d463 b5bd f32e ef3d
00000050: 2eb6 6c3d a4e2 a1bc 889f 5dbe f7b5 6c3d
00000060: 438f 2abe 00a4 1abb df61 bebb 2ee8 5a3c
00000070: 2e84 e0bc 1422 793d 07e9 143e 0132 e2bd
00000080: c717 ecbd 02f3 12bc 8c47 3d3e 36bc e93d
00000090: 4d25 18bd 7a5c c03d 87a0 8c3d 4bda 0ebb
000000a0: 0d69 41be 1cd5 5b3e 68ca 14be 69fa 273e
000000b0: 0b80 12be 681d 0c3e 0abd 3ebe c9c1 6ebc
000000c0: 30be 4dbe d91d ccbc 864d fabc e5cf 2ebe
000000d0: a1af 05be 6c2d bf3d f9e5 243d 3293 5a3e
000000e0: 0b64 e1bc e8a5 e13d 2826 313e 24e4 67bc
000000f0: bf6f 71bd ed3d 74bd 79b2 c53d ad11 12be
00000100: 0dd4 fc3d fe9f 483e 6a59 b3bd d298 0abd
00000110: 3ebc 253e 4dff 823d f307 f2bd fadb 5fbe
00000120: a178 823d c65d 45bd 6649 6fbd 5d96 263d
00000130: 9aea ac3b 35c9 763d e355 2d3c 33bb 8f3d
00000140: 6462 51be a155 0dbc de7e d4bc 602a 1a3e
00000150: ae70 c4bd 56b7 36be ea08 f1bd 0a79 d7bd
00000160: 1354 4a3e 4eea 02be ccae f7bc 6f59 303e
00000170: 0c94 133e cb3a f3bd 3bc1 99bc 6073 39be
00000180: e294 c13b 0dc0 40be 922f ebbd 5dde a33d
00000190: eeda 1abe 8ed2 ad3d 43f0 d2bd 22ad 54be
000001a0: 6694 fbbd 682c f63c 61a8 91bd d511 563d
000001b0: 3bc6 f23d 3b25 103e e017 4ebe ba21 18be
000001c0: 23b6 263e 46b3 b1bc 2f24 b8bd a4e5 27bd
000001d0: 0a81 52bd 02f2 d23d 8ed1 c43d 39df 763d
000001e0: e898 b3bd fa3e 203e 80d6 5dbd 1bec 683c
000001f0: 4cea 05be d7de 413e 60b0 f63d 38a3 9dbd
00000200: e5d2 293e b51e 0bbe 8db8 a7bd 3384 223e
00000210: fcdf c03d c7a6 2fbe 8238 043e 40ec 403e
00000220: 0df0 e53d 2adc 933c a82c 0e3e 874b c7bd
00000230: b27b 49bd 2764 063e 5b99 d8bd 788b ff3d
00000240: d8d4 50be fb51 2c3e 9d4f 3abd 7f5f bd3d
00000250: a443 ce3d 8d27 11bd 2b45 cdbd 1350 d63b
00000260: 693c 343e a1d7 113e 3a9a b9bd f417 6bbd
00000270: a05c 5e3d ef01 25be 7024 493d e847 8cba
00000280: b6cc 4cbc dd1a 9a3b 4744 2d3e 22a2 cfbd
00000290: 99e5 643d 3c9b 72bb 95d2 c3bd c15b cdbc
000002a0: c755 8b3d 71d4 e13d 6bc3 3d3e 841b 24bd
000002b0: 5c6d 58bd 100e 33be 9712 333c d711 c73d
000002c0: bbbe 113d f99f eabd e9a4 d03d dbd9 413e
000002d0: b297 d3bd a4ec 98bd 0d9e 483d d437 503c
000002e0: 639e 2a3e 5005 3fbe 6b0c de3d 05cf b0bd
000002f0: c11d 133e 9496 fd3d 2206 16bd cac9 ba3d
00000300: 687b a83d 84f7 a5bd a812 ed3c 905c 013e
00000310: 58ec 1dbe d476 5d3e a7bd 923d 25e2 643c
00000320: 8397 babd 4f9d 893d c0a1 86bd ce56 dcbd
00000330: ff85 1cbe 9109 8d3d f814 fabb 697c e6bd
00000340: 13f8 463e fd71 2fbe 175d bfbd 62a9 b8bd
00000350: 25fb f03c 907d 4b3d 00df 8ebd dd9c a9bd
00000360: c249 e03d e873 5bbb 5239 4a3e f7b1 173e
00000370: 21a0 103e e085 0ebc cafe 0ebe 9ea5 a9bd
00000380: 259c 14be 0c1e 20be 9a2b 923d 1aee 05be
00000390: 92bb 50be c0f3 ffbd aee1 7c3d 104e fd3c
000003a0: 1e58 a4bd a2dd 3bbe 1862 59b9 58ed 973d
000003b0: 8de0 b83d 6f1a f2bd 40aa 4e3e 0ead 26be
000003c0: 16bc f33c 944c 18be a6ea 523e 35e9 9fbd
000003d0: a640 a93d 1c8f 29be c94c b23d 5aa4 b33c
000003e0: 1af2 e7bc 5f4a 5f3c b30e 9e3d f676 223e
000003f0: daf8 64be 70e5 f4bd 879f e63d cdfe ef3c
0.22496392 0.085124135 -0.19512571 -0.0677552 -0.06589219 -0.14987202 0.06606787 0.20081885
0.05443588 0.015363334 -0.0835403 0.07197981 -0.18123534 0.15056732 -0.14213185 0.07611624
0.06698661 -0.11305953 -0.08856931 0.11678877 0.057790928 -0.019761391 -0.21642888 0.057790723
-0.16656213 -0.0023596287 -0.005810007 0.01336102 -0.027406778 0.060823515 0.14542018 -0.11044694
-0.11527973 -0.00896907 0.18484324 0.114128515 -0.037144948 0.093926385 0.06866556 -0.0021797593
-0.1888773 0.21468014 -0.14530337 0.16404118 -0.14306657 0.13683093 -0.186268 -0.014572569
-0.20092082 -0.024916576 -0.030554544 -0.17071493 -0.13055278 0.093348354 0.04025838 0.21345213
-0.027513525 0.11017972 0.17299712 -0.014153514 -0.05894446 -0.05962937 0.096531816 -0.14264555
0.12345133 0.19592282 -0.08757289 -0.033837147 0.1618509 0.06396351 -0.118179224 -0.21861258
0.063706644 -0.048185132 -0.058419608 0.04067074 0.00527699 0.06025048 0.010579559 0.07018127
-0.2044769 -0.008626373 -0.025939401 0.15055227 -0.095918044 -0.17843375 -0.11769278 -0.10521133
0.19758634 -0.12784693 -0.030234717 0.17221616 0.14411944 -0.11876448 -0.018768897 -0.18110418
0.005907641 -0.18823262 -0.11483683 0.08001397 -0.15122578 0.08487426 -0.102997325 -0.2076917
-0.12284164 0.030050471 -0.07112194 0.0522631 0.11854216 0.14076702 -0.20126295 -0.14856616
0.16280417 -0.02169193 -0.089912765 -0.040990487 -0.051392592 0.103000656 0.09610282 0.060271475
-0.08769399 0.15649024 -0.05415964 0.014216448 -0.13077658 0.18932663 0.120453596 -0.07697147
0.16584356 -0.13585933 -0.08189497 0.15870742 0.09417722 -0.17153464 0.12912181 0.18840122
0.11227427 0.018049318 0.13884223 -0.097312026 -0.04919023 0.13124143 -0.10576125 0.124777734
-0.20393693 0.16828148 -0.04548608 0.0924673 0.10071495 -0.03543811 -0.10022958 0.0065403073
0.1760117 0.14242412 -0.090626195 -0.05739589 0.054287553 -0.16114019 0.049107015 -0.0010702582
-0.012499979 0.0047029094 0.16920577 -0.10138346 0.055883024 -0.0037018796 -0.0956165 -0.025068166
0.0680347 0.11026848 0.18531577 -0.040065303 -0.05283867 -0.17485833 0.010929725 0.097201996
0.035582285 -0.114562936 0.10187704 0.18930762 -0.10331668 -0.074670106 0.048978854 0.012708623
0.16661982 -0.1865437 0.10842212 -0.08633236 0.14366819 0.12382236 -0.036626942 0.091205195
0.08226663 -0.081038505 0.02893956 0.12632966 -0.15422189 0.2162736 0.071650796 0.013969933
-0.0911093 0.06719457 -0.0657382 -0.10758744 -0.1528549 0.0688659 -0.007631894 -0.11254198
0.1943057 -0.17133327 -0.09343927 -0.09016682 0.02941663 0.049680293 -0.069761276 -0.082818724
0.10951568 -0.0033485834 0.19748428 0.14813982 0.14123584 -0.0086989105 -0.13964382 -0.08283542
-0.1451269 -0.15636462 0.071372226 -0.1307911 -0.20384052 -0.124976635 0.061738662 0.030921012
-0.080246195 -0.18346265 -0.00020731275 0.074183166 0.09027205 -0.11821448 0.20182133 -0.16276953
0.029752772 -0.14872962 0.20597324 -0.078081526 0.08264284 -0.16558498 0.08706052 0.021928955
-0.028313685 0.013628571 0.077176474 0.15865692 -0.22360554 -0.11957824 0.11260896 0.029296303
