app/src/main/ml/Pricing3.tflite (tflite, 414560 bytes, 5 tensors)

arith.constant f4 [1, 64]
000000 44 8d 42 3d 37 70 91 be b7 f8 90 3e 06 82 8e 3e
       0.047498003 -0.28405926 0.28314754 0.27833575
000010 ca a9 3e be 34 a7 88 3e 42 e1 86 be 58 f5 da 3d
       -0.18619457 0.26690066 -0.26343733 0.10691327
000020 0d ed 8e 3e d7 a4 6f be 9e b4 47 3c 04 ff 91 bb
       0.2791523 -0.23402725 0.012189059 -0.004455449
000030 04 f1 7c 3d c9 0f 07 3e 2d df 2a bd fb 58 29 be
       0.061753288 0.13189615 -0.041716743 -0.1653785
000040 f7 cb 69 3d a9 9e 75 bd 57 c8 11 3e c5 74 37 3e
       0.05707928 -0.059965763 0.1423658 0.17915638
000050 3f 06 00 3c 43 5c 25 3d bd cb f4 3c 25 65 e0 bb
       0.007813989 0.04037119 0.029882306 -0.006847995
000060 b4 86 11 3e 41 10 5d be 99 dc c7 bd d6 10 b0 bd
       0.14211541 -0.21588232 -0.097588725 -0.08596961
000070 c0 ad 5c 3e 42 a6 46 be 8a ae 2d 3e e3 9f 8f 3e
       0.21550655 -0.1939936 0.16961113 0.2805167
000080 a6 2b 7d 3e b7 c4 8a be 37 63 59 be 39 73 4e be
       0.24723682 -0.27103207 -0.21229254 -0.20161141
000090 17 12 a0 3d 55 ed 76 be f9 d6 dd 3d 1d 98 42 3d
       0.0781595 -0.24113972 0.108320184 0.047508348
0000a0 b8 d4 28 3e 1b 2d 42 be 27 db 14 be 78 e4 36 3e
       0.16487396 -0.18962519 -0.14536725 0.17860591
0000b0 75 13 f4 bd b3 a5 cf bd f8 41 90 be 4c 94 e7 3d
       -0.11917774 -0.101390265 -0.2817533 0.11307582
0000c0 aa 88 14 be cc 31 7e be 02 be ae bd 76 be 36 3e
       -0.14505258 -0.24823684 -0.08532335 0.17846093
0000d0 7e 4c 63 be 32 87 7f be 6d 5a 46 be 9c 20 92 be
       -0.22197148 -0.24953917 -0.19370432 -0.28540504
0000e0 67 12 89 bd 39 3e 46 bd da 51 57 be 7a 86 e7 bc
       -0.06692963 -0.048399184 -0.21027318 -0.028262366
0000f0 2f 4f 95 3e 82 fc f0 bd 82 85 84 be 19 47 8e be
       0.29161975 -0.11766912 -0.25883108 -0.27788618

arith.constant1 f4 [64, 128]
000000 e3 7a 8a 3d 92 d0 2b be ba 5d 1c be 84 c0 07 be
       0.0676172 -0.16778782 -0.15270129 -0.13257033
000010 fd d4 e6 bc 06 1c 17 be a7 3a 91 3c 3c bb 16 3e
       -0.028177733 -0.14756784 0.017728163 0.14719862
000020 8e 66 d2 bd 65 53 26 be e8 53 f2 bc eb 8d 0d bc
       -0.10273467 -0.1624275 -0.029581025 -0.008639793
000030 87 50 ab bc b1 c8 e1 bc 1e cf 54 bc 13 c7 e1 3d
       -0.020912422 -0.027561517 -0.012988834 0.110242985
000040 b0 38 07 3e a5 d2 37 be b0 ab 80 3c 0e 50 98 bd
       0.13205218 -0.17951448 0.015706867 -0.07437144
000050 d5 9c 07 3d 19 29 cf 3d a4 8b ba 3c 5e 0d 2f 3d
       0.03310855 0.10115261 0.022771664 0.042737357
000060 3a 28 11 be c4 07 f9 3d 48 f7 21 3e bd 03 3a be
       -0.14175501 0.12159684 0.15816987 -0.18165489
000070 e2 8b 0a bd 3d 01 f8 bd e4 40 fe 3d c8 1f 99 bc
       -0.03382481 -0.12109611 0.12414721 -0.018691912
000080 42 55 33 3c b0 bd 04 be 8f cb 19 be 67 ac 91 bd
       0.01094562 -0.12962985 -0.15019058 -0.07112961
000090 46 a5 99 3d e5 fb 1f be ab 10 1d 3d 44 96 56 bc
       0.075022265 -0.15623434 0.038345974 -0.01309735
0000a0 ef 8e 88 3d d1 80 ab bd 2b 50 81 3c a2 31 f3 bd
       0.066678874 -0.08374179 0.015785297 -0.11874701
0000b0 6a 72 96 bd ec 62 5b bc d1 9b ca 3d e9 a7 00 3e
       -0.073460415 -0.013390284 0.09893001 0.12564053
0000c0 99 a7 2e 3d 09 e3 64 3d d3 1d 23 3e d7 03 01 be
       0.042640302 0.05588058 0.15929346 -0.12599121
0000d0 55 95 18 bd bc 6a 7c bd 35 24 88 3d c5 4a 0b be
       -0.03725179 -0.061625227 0.06647531 -0.13602741
0000e0 ec c4 69 bd a1 dc 12 be 71 13 b2 3c 23 0b ba b9
       -0.057072565 -0.14341976 0.021737786 -0.00035484982
0000f0 81 5e 28 bd 0c a4 42 3d a1 36 ba bd b0 93 2e be
       -0.04110575 0.04751973 -0.09092451 -0.17048526
000100 29 ba 60 ba 6c 18 dc 3d 1d 3a e0 bd 68 53 d4 bd
       -0.0008572662 0.107468456 -0.10948584 -0.10367471
000110 47 2e 8b bb b9 4e 09 3d 65 07 d0 3d ee e1 f4 bc
       -0.00424746 0.03352234 0.101576604 -0.029892888
000120 b5 0e c1 3d 07 84 1a 3e c4 ff ab 3b 2a e5 b5 bd
       0.09426633 0.15089427 0.0052489955 -0.088816
000130 85 df cc 3d c0 77 0a 3e dd 97 13 3e 66 75 98 3d
       0.100035705 0.13522243 0.144134 0.07444267
000140 c9 f9 8d 3d e8 f5 d5 bc 94 ab 29 bb dd 30 8f bc
       0.06932408 -0.026118234 -0.0025889622 -0.017479355
000150 54 02 18 be 95 7d 23 3e 86 7e a0 3d 79 ec cc bd
       -0.14844638 0.15965874 0.078366324 -0.10006041
000160 e5 32 ee bd b8 fe bc 3c fe 38 16 3e 85 43 fa 3c
       -0.11630801 0.023070678 0.14670178 0.030549774
000170 77 99 b2 3c 4b de 1d bd 7f 9c d7 3d 0c d6 a1 bd
       0.021801693 -0.038542073 0.10527896 -0.07902154
000180 c4 37 28 be 4e 50 05 3e ef 85 34 3e 18 f0 84 bd
       -0.16427523 0.13018915 0.17629217 -0.06491107
000190 18 d9 28 be 61 3c 6c 3c 03 0f 84 3d 4e 92 a7 bd
       -0.16489065 0.014418692 0.06448176 -0.08182202
0001a0 76 a1 8d bd ba ed f6 3d 11 71 db 3d 03 5e c6 3d
       -0.06915562 0.120570615 0.10714925 0.096859
0001b0 34 01 9e 3d b1 5e 1c be ae 52 2c be 0b e0 10 be
       0.07715073 -0.15270497 -0.16828415 -0.14147966
0001c0 fa ec 28 be dd 44 98 3d 5d 64 da 3d fb 9d 64 3c
       -0.1649665 0.0743501 0.10663674 0.013953681
0001d0 1e bc 1c 3e ac 5b 1d 3e 1c 70 6b bd ac 0d 09 be
       0.15306136 0.15367001 -0.057479963 -0.13384122
0001e0 22 f5 b7 bd a7 b6 53 bd 4f b2 6b bc 39 ba 27 3e
       -0.08982302 -0.051687863 -0.014385774 0.16379632
0001f0 24 9a eb bd 43 1d 0f 3e dd e8 ab bd 55 48 a0 3a
       -0.11504009 0.13976006 -0.083940245 0.0012228588
000200 12 5e 0d 3c 80 4b 54 3b 8a cd db 3d 6b a7 0b 3e
       0.008628385 0.0032393634 0.10732563 0.13638084
000210 16 d7 39 be 77 8f bf 3c 72 b4 0b be 96 9f e4 3d
       -0.18148455 0.023383839 -0.13643053 0.11163251
000220 01 33 0e be ad 27 1e 3e 89 d0 34 3e 3e 3e e8 3d
       -0.13886644 0.15444823 0.17657675 0.11339997
000230 39 64 7e bc 26 9a 05 be ab 74 6c 3d 08 68 92 3c
       -0.015526825 -0.13047084 0.05772845 0.017871872
000240 1e 6c d3 bd db d8 9b bd 90 ab fc bd 46 28 c0 3d
       -0.10323356 -0.07609721 -0.123374104 0.093826815
000250 43 a5 21 3e ac bb a9 bc 79 3e e2 3c e2 68 36 bd
       0.15785699 -0.020719372 0.02761768 -0.044533618
000260 86 65 16 be 90 c1 21 bd 6c 7b 22 bd 67 2d 0d be
       -0.14687166 -0.039491236 -0.039668486 -0.13786851
000270 16 a9 98 bd 6e fc 05 3e 9a 34 2d be 10 fe 5b bc
       -0.074541256 0.13084576 -0.16914597 -0.013427272
000280 40 df 22 bd 6b 49 9f 3d f8 74 97 bd d6 4e 18 be
       -0.03976369 0.07777675 -0.07395357 -0.14873824
000290 88 3e 13 bd 26 13 ed 3d 01 63 59 bd 17 de c9 bd
       -0.035948306 0.11575918 -0.053072933 -0.098568134
0002a0 8e 67 1f be 44 94 12 3e 8f 87 4b 3d 6a 7e 15 be
       -0.15566847 0.14314371 0.049689826 -0.14599004
0002b0 93 3c f4 3d 5d 97 59 bd 33 d2 85 3d 81 27 0f bc
       0.11925616 -0.053122867 0.06534233 -0.008737446
0002c0 15 1a 29 3e c1 84 13 3e 8e de 7f 3d 3a 99 7f bd
       0.16513856 0.1440611 0.062468104 -0.062401988
0002d0 af 02 c0 3d 8e 50 54 bd c4 03 11 3d 84 a6 79 bd
       0.09375512 -0.051834635 0.03540398 -0.060949817
0002e0 8b 47 14 3e ed c0 82 3d 7e 0e 98 3d c2 51 f9 bd
       0.14480416 0.06384454 0.07424639 -0.12173797
0002f0 7c df 15 3d 59 a8 28 be be 58 04 3e a7 a3 11 3e
       0.036590084 -0.1647047 0.12924477 0.14222585
000300 28 70 16 3e f0 8b ad bd 88 1d 2b be d5 e5 c8 bd
       0.14691222 -0.084739566 -0.16710484 -0.09809462
000310 97 99 d8 bd fd 3a 4b bd a4 ba 5d bd 05 e2 60 bd
       -0.1057617 -0.049616802 -0.054133072 -0.05490305
000320 6a 0b 40 3c c8 d7 1a be 81 b4 1d 3e 66 5c 7e 3d
       0.011721471 -0.15121377 0.15400888 0.062099837
000330 db c5 15 3e 67 64 29 3e 15 4e 13 3e d0 13 02 be
       0.14626257 0.16542207 0.14385255 -0.1270287
000340 40 25 e7 bd 40 72 09 be c8 40 f5 3d f0 62 14 3e
       -0.11286402 -0.13422489 0.11975247 0.14490867
000350 4a 9b dc 3d ff 59 0e 3e 00 a7 99 bd 57 cc 25 3d
       0.107718065 0.13901518 -0.07502556 0.040478077
000360 66 12 3e 3d 85 15 09 bd 78 3c 35 bd 26 42 89 3d
       0.046404265 -0.03346779 -0.04424712 0.0670207
000370 b9 f1 2b be f4 bd 06 3e 47 75 1b be d8 28 ec 3c
       -0.16791429 0.13158399 -0.15181457 0.02882807
000380 ac 52 ba bd c4 12 b5 3d aa 17 18 be 8a 6d d7 3d
       -0.090978 0.0884147 -0.14852777 0.1051894
000390 35 6b c1 bc 7d 5a fa bd e3 8a a5 3b ff 15 2a 3d
       -0.02361069 -0.122242905 0.005051957 0.041524883
0003a0 f2 d4 f5 bd cf 89 dd bd fd cd 8f bd 10 fc 96 bd
       -0.12003507 -0.108173005 -0.07021711 -0.07372296
0003b0 6b 4f 19 3e 72 5b bb bd 98 6e ff bc 87 b2 22 be
       0.14971702 -0.09148301 -0.031180665 -0.15888415
0003c0 d2 4b 96 3d ae 98 29 3e 9b 08 e9 3d d7 e5 11 be
       0.0733868 0.16562149 0.113785945 -0.14247833
0003d0 06 f6 b9 bd fa b7 91 3c 46 37 98 3d d1 41 c8 bd
       -0.09080128 0.017787922 0.074324176 -0.097781785
0003e0 17 4a 97 bd 18 a1 21 be f2 28 52 3d 1b 24 87 bd
       -0.073871784 -0.15784109 0.05130858 -0.065986834
0003f0 c1 1c 36 be 07 6f 8f bd 60 b2 bb 3c 25 4a b7 3d
       -0.17784406 -0.07003599 0.022912204 0.08949689

arith.constant3 f4 [64]
000000 ac 78 a9 bb c5 c2 0b bc 5c e9 48 3b ef 72 cf 3b
       -0.005171856 -0.008530323 0.003065667 0.00633084
000010 7b f3 da bb b2 e8 4d 3b 55 dc 3c bc 50 a9 97 bb
       -0.006681857 0.0031419215 -0.011527141 -0.004628338
000020 a1 39 09 bb 3d 9b 38 bb 58 3a 8a ba 29 cb 6e bc
       -0.002093889 -0.00281687 -0.0010545952 -0.014574804
000030 af 9d 10 ba 4e c0 9d bb 24 a8 2b bb c2 e3 5b bb
       -0.0005516661 -0.0048141843 -0.002619275 -0.0033552502
000040 cd b3 82 3b ac 4b 7f bb ef 02 27 bc ba b4 eb 3a
       0.003988719 -0.0038955016 -0.0101935705 0.0017982938
000050 0b ef a8 ba 2a 01 76 bb df 3a 0a 3a 00 d7 d3 bb
       -0.0012888623 -0.0037537315 0.00052730547 -0.006464839
000060 ec 96 3b 3b 87 c8 c4 bb 7c 87 a0 bb ae fb ea ba
       0.0028623892 -0.00600535 -0.0048989635 -0.001792779
000070 80 8f 34 3b ce 9b d6 bb 11 48 c7 39 b0 3b 28 bb
       0.0027551353 -0.006549335 0.0003800993 -0.0025670342
000080 56 46 69 bb 1f 4a 97 bb 80 6e 86 bb 36 4d a9 bb
       -0.0035594902 -0.00461699 -0.004102528 -0.005166675
000090 fc 22 2c 3c ed 57 40 bc 81 cf 27 3c ac 42 5c 3b
       0.010506388 -0.011739713 0.010242344 0.0033609075
0000a0 1a 5a 53 bb 25 7b 0b bc 0b fd 4b bc 30 5c fa b9
       -0.003224975 -0.008513247 -0.012450467 -0.000477524
0000b0 25 91 36 bc 65 3b 9c 3b ab 99 14 bb 50 8c 6d ba
       -0.011143004 0.0047678226 -0.00226746 -0.0009061741
0000c0 f7 cb cc bb f6 77 1a bc 9c f5 4c ba 00 00 00 00
       -0.0062499004 -0.009428015 -0.0007818581 0.0
0000d0 53 4e c5 bb 62 40 94 bb f1 0d a9 bb b0 44 60 bb
       -0.0060213 -0.0045242766 -0.0051591326 -0.0034220628
0000e0 96 fd 75 bb 2c 4f 8b bb 43 30 61 bb 23 cf c3 bb
       -0.0037535182 -0.0042513814 -0.0034361042 -0.0059756204
0000f0 9f d7 de ba 0e 15 b1 bc 06 5f bf bb 01 77 cf bb
       -0.0017001516 -0.021616485 -0.005840185 -0.006331325

sequential_5_1/dense_15_1/Add/ReadVariableOp f4 [128]
000000 e6 08 d5 bb 2a 20 af bb 6e 08 b6 bb fb 14 cc ba
       -0.006501305 -0.0053444104 -0.005555204 -0.0015570218
000010 fa ed 83 bb 66 b3 2b 3b d8 c6 ef bb 2d dd c3 bb
       -0.0040261718 0.002619946 -0.007317405 -0.005977294
000020 b4 ae 72 ba db ed 69 3a b6 13 b8 bb c4 e5 12 bc
       -0.00092576 0.0008923688 -0.005617584 -0.008965913
000030 af e4 22 bb a1 6b 80 bb 98 88 f7 ba 48 83 b0 bb
       -0.0024855544 -0.0039190804 -0.0018885313 -0.0053867437
000040 38 21 b6 bb 02 a6 aa bb 92 94 c4 bb 00 00 00 00
       -0.005558159 -0.005207778 -0.0059991563 0.0
000050 15 54 30 bb 81 a6 b3 3a 09 98 dd bb 9f a6 54 bb
       -0.0026905586 0.0013706238 -0.006762509 -0.0032447947
000060 4d 23 a0 bb 47 45 af b9 54 67 0b 3c a6 e0 9f 3b
       -0.0048870207 -0.00033430217 0.008508522 0.004879075
000070 7f 59 a0 bb 6e 29 03 b9 aa cc 14 bb d9 e6 b4 bb
       -0.0048934813 -0.00012508567 -0.0022704997 -0.0055206832
000080 df b0 7f bb 39 91 27 bb d5 8b 89 ba ac 65 76 3b
       -0.0039015335 -0.0025568737 -0.0010493944 0.0037597222
000090 00 00 00 00 ee c4 c4 bb 9d 0c b6 bb 83 17 9f bb
       0.0 -0.006004921 -0.005555703 -0.0048550977
0000a0 60 b9 73 3a ca 7b 9a bb a6 31 37 bb 7d 74 87 bb
       0.00092973374 -0.004714464 -0.0027953177 -0.0041337595
0000b0 7c 0a bd bb 83 45 47 bb 31 a9 8e bb 7b 60 81 bb
       -0.005769072 -0.0030406422 -0.0043536653 -0.003948269
0000c0 17 a0 a9 bb 1e f8 00 bb 31 5e 54 bb 00 00 00 00
       -0.005176555 -0.001967914 -0.0032404775 0.0
0000d0 e8 c0 9e bb 00 00 00 00 11 eb 7f bb 23 7b f2 bb
       -0.0048447736 0.0 -0.0039050023 -0.007399933
0000e0 86 b5 a7 bb 9b 8c 6a bb 00 ba da bb 77 c0 a3 bb
       -0.005118075 -0.0035789374 -0.006675005 -0.004997309
0000f0 7e 0b 12 bc 72 a5 a7 bb 40 bc e1 ba 09 e3 b8 bb
       -0.008913873 -0.005116158 -0.001722224 -0.005642299
000100 e5 4a 07 bc cb be c4 bb 77 c8 67 3a b4 d3 83 bb
       -0.008257602 -0.0060041896 0.0008841822 -0.0040230397
000110 6a 8c 90 bb 82 40 50 3b cf 1f 67 bb cb 0d f5 ba
       -0.00441127 0.003177673 -0.0035266762 -0.0018696127
000120 8f d0 16 3b 1b 98 ac 3b 12 83 d9 bb c9 4b b7 bb
       0.0023012494 0.005267156 -0.0066379393 -0.005593751
000130 cc f2 cf bb b5 70 c7 bb 00 00 00 00 58 18 f4 bb
       -0.0063460823 -0.006086434 0.0 -0.007449191
000140 3a 18 61 bb 00 00 00 00 6d 9b 6c bb 1a 6f 64 bb
       -0.0034346716 0.0 -0.0036103383 -0.003485626
000150 21 e5 fa bb e7 2f e9 39 33 28 c4 bb a0 ac 78 bb
       -0.007656709 0.00044476913 -0.0059862374 -0.003794469
000160 69 ea a7 3b b7 04 92 bb 3a 0c 55 ba ea 57 30 ba
       0.0051243794 -0.0044561285 -0.0008127127 -0.00067269674
000170 55 ee ad bb b7 21 53 3b 5f c4 56 bb 6e bf c4 bb
       -0.0053079524 0.003221614 -0.0032770855 -0.0060042655
000180 c5 bb a4 bb 42 98 80 bb a6 bd c4 bb a5 6b ed bb
       -0.0050272667 -0.0039244005 -0.006004053 -0.0072454982
000190 ff 5b 1a bc 5f 4a 13 bb 5e d9 88 bb 48 3c 61 bb
       -0.009421348 -0.0022474749 -0.004176303 -0.0034368206
0001a0 9e ff b4 bb ff ef 96 bb 89 7d 98 ba 59 57 79 bb
       -0.005523636 -0.0046062465 -0.0011634092 -0.0038046448
0001b0 64 13 11 bb 0e ad 20 ba 00 a8 62 bb ab ff 8c 39
       -0.0022136802 -0.0006129303 -0.0034585 0.00026893368
0001c0 2d 26 13 bc 40 a6 34 bb 46 ff ef bb 68 d1 48 ba
       -0.00898127 -0.0027564913 -0.007324132 -0.00076605985
0001d0 9d b3 30 3a b8 41 c4 bb 6a da 58 3a d1 7c b7 bb
       0.00067406317 -0.0059892796 0.00082722923 -0.005599596
0001e0 50 d1 ad bb 9e 8e 97 bb 0a e6 c5 ba b5 7e c4 bb
       -0.005304493 -0.0046251556 -0.0015098464 -0.00599655
0001f0 25 76 f9 3b fa cf a2 bb 9b a2 fa bb 52 7e 9a bb
       0.007612961 -0.0049686404 -0.0076487786 -0.0047147656

sequential_5_1/dense_15_1/MatMul f4 [128, 740]
000000 10 69 4c 3d 64 9b 75 bb 62 8f 6e bc b0 47 8a 3c
       0.049904883 -0.0037476653 -0.014560552 0.016879886
000010 2f 8f 8f 3d 6e 16 49 3c 23 19 91 3c 97 4d 96 bc
       0.07009732 0.012273414 0.017712181 -0.018347545
000020 66 bd 65 3d 7a c7 0b bd bc 32 5c 3d 1d a4 98 3d
       0.056088828 -0.034125783 0.05375932 0.07453177
000030 c5 ca 97 bd 9c 64 39 3d 66 09 a8 bd e7 4b 37 bd
       -0.07411722 0.045261964 -0.082049176 -0.04475012
000040 c7 1d 21 bd 7a 70 69 bc 79 d3 47 bd 1d 22 dd 3c
       -0.03933504 -0.014248008 -0.04878566 0.026993806
000050 db 39 1e 3d da 0c 83 bc 26 3d 7f 3c dd d8 3f bd
       0.038629394 -0.015997339 0.015578544 -0.046837676
000060 76 c4 d3 3c b2 99 fc 3b f3 66 8c 3d 69 ef b3 bd
       0.025850516 0.0077087516 0.068555735 -0.08785898
000070 27 59 9e bd ae 4c 6c 3d 0b 32 68 3d e3 77 2d 3d
       -0.07731848 0.057690315 0.05668835 0.04235066
000080 a0 11 41 3d 1b 24 5c bc e8 94 9f 3c c7 15 d0 3b
       0.04713595 -0.013436343 0.019480184 0.0063502523
000090 2a 8d 8e 3c 70 e0 7e bc 8b ff 88 bd 85 1a 8e 3d
       0.017401297 -0.01555644 -0.06689366 0.06938652
0000a0 40 26 fa ba 14 04 b1 bc f3 98 8b 3d 27 54 37 3d
       -0.0019084886 -0.02160839 0.06816282 0.04475799
0000b0 8d 1f b6 bd e4 ec 1c 3d 96 fb 82 bd 0c 83 89 3c
       -0.088927366 0.038311854 -0.063956425 0.01678612
0000c0 a5 50 82 bd d9 59 94 3d 52 b2 98 bd 5e 9f ab bc
       -0.06363038 0.072436996 -0.07455887 -0.020950016
0000d0 cf 6a 8d 3d c5 6c c1 3c a5 ff 9b bd 6d 6a ba 3c
       0.06905138 0.023611436 -0.0761712 0.022755826
0000e0 fe a3 01 3d 8f 17 75 bd dd c3 9d bc 49 66 56 bc
       0.031650536 -0.05983692 -0.019258434 -0.01308591
0000f0 c3 75 ef ba aa fe 22 bd 9a df 96 3d 6a 85 d3 bc
       -0.0018269349 -0.039793648 0.07366867 -0.025820453
000100 ae 00 68 3d 55 ec bc 3c 4f ce 6c 3d e3 f0 17 bd
       0.056641273 0.02306191 0.05781394 -0.03709496
000110 d3 cb 40 3d 5b 49 79 3d 8b e1 87 3d 61 36 89 bd
       0.047069382 0.060860973 0.06634816 -0.06699825
000120 9f e2 48 bd 64 f2 97 bb a5 4a 96 3d 41 46 e4 bc
       -0.049044248 -0.0046370495 0.07338456 -0.02786553
000130 f4 17 91 3d 0a 5b 82 3d 9e f3 ac bd b1 fd a5 bd
       0.07084647 0.063650206 -0.08444904 -0.081050284
000140 f7 9c 13 bc 17 28 0a bd 4e b1 8e bc 9f 82 2d bc
       -0.009009591 -0.03372964 -0.01741853 -0.0105902245
000150 ca 84 24 3d 50 ba 81 bb 2d be 41 3d 7a e2 e7 bc
       0.0401657 -0.0039589778 0.047300506 -0.028306235
000160 06 dd 93 3d ca d1 be bc b6 26 81 bd a4 d3 4a bd
       0.07219891 -0.023293395 -0.06306212 -0.049518242
000170 1f a4 9a bd 67 3b 46 bd 8d ff 93 3d b8 ab 25 bd
       -0.07550835 -0.048396494 0.07226477 -0.040446967
000180 ab 57 c3 3b 87 89 e7 3c ae 30 f6 3c 27 2a 56 bd
       0.0059613786 0.02826382 0.03005251 -0.052286293
000190 b9 6e a4 bd 57 0b c3 3c ea 77 b4 bc a7 8e e7 3c
       -0.08028931 0.023809118 -0.022029836 0.028266264
0001a0 1b 59 9d 3d a3 9d 15 bd 0d 55 d7 bb cb 2d 89 bd
       0.07683011 -0.036527287 -0.006571418 -0.066981874
0001b0 d0 30 fa 3c 07 c1 8b 3d 75 91 9e 3c e5 13 1f bc
       0.030540854 0.068239264 0.019356469 -0.009709333
0001c0 7b bc 17 3b d5 a6 88 bd ea 4c d2 bc 69 80 a5 bd
       0.0023153115 -0.06672446 -0.025671441 -0.08081133
0001d0 44 76 b7 bd 47 d9 60 3b 30 41 57 bc 91 81 f4 3c
       -0.08958104 0.0034309195 -0.0131381005 0.029846938
0001e0 32 3a ac bc 01 a7 11 bd 6b eb 5b 3d de a7 a1 bd
       -0.021023843 -0.035559658 0.05369131 -0.07893346
0001f0 53 ad 61 bd 10 00 a8 3c 99 65 ff 3b 7a 59 09 bd
       -0.055096935 0.020507842 0.007794094 -0.033532597
000200 c7 57 c7 ba d0 5c 9a 3d 43 49 26 3d 68 5f a9 3c
       -0.0015208655 0.07537234 0.04059721 0.020675376
000210 84 21 76 bd 2d 62 2a bc ef c7 44 bd 2a ca 5d 3d
       -0.060090557 -0.0103993835 -0.048042234 0.054147877
000220 f5 dd 53 3c c2 3c 6a bd 3d b8 51 3d de f2 97 bd
       0.012931337 -0.05718685 0.051201094 -0.0741937
000230 ea 3b 8a bd 00 94 80 bd 9e 09 1a 3d f0 e6 0f bd
       -0.06749709 -0.06278229 0.037606828 -0.03513235
000240 64 d8 1b 3d 4a cf 2b 3d 54 da 0d 3d 1f dc 6b 3d
       0.038048163 0.041945733 0.034632042 0.05758297
000250 a5 34 bb bb e8 3a 06 bd 91 d6 8c bc 71 0a be 3b
       -0.005713063 -0.03277102 -0.017192157 0.0057995846
000260 10 69 05 bd 06 d2 85 3a 9d 75 c5 bc a5 61 2e bd
       -0.0325709 0.0010209687 -0.024103934 -0.04257359
000270 53 5e 82 bd 96 f7 8b 3d 51 31 57 3d ce 76 95 bd
       -0.06365647 0.06834333 0.052537266 -0.07298051
000280 2a 98 db bb a7 9c 49 3c 02 13 b5 3c 44 d5 65 bc
       -0.006701489 0.012305415 0.02210379 -0.014027897
000290 e1 e2 ea bc b2 be 78 3c 5a 16 8d bc 45 b5 6e 3d
       -0.028672637 0.015182184 -0.017222572 0.05827834
0002a0 51 91 97 3c 5c 74 4c bd 23 cb 23 bd 57 2c 16 bd
       0.01850191 -0.049915656 -0.03998865 -0.03666338
0002b0 07 2a 86 bd c4 c8 ab bd e3 2c 92 3d e3 95 1f 3d
       -0.06550985 -0.083879024 0.07137468 0.038961302
0002c0 2e d1 a1 bd 66 e4 91 3d 34 30 74 3d 20 f4 47 bc
       -0.07901226 0.07123642 0.059616283 -0.0122042
0002d0 f8 70 6d 3d 21 88 b8 3c 06 1a 5f 3d 00 04 5a 3b
       0.057969064 0.022525849 0.054468177 0.0033266544
0002e0 59 a7 5e bd 70 ba b1 bd ff 5c 38 3d 57 3d 88 bc
       -0.054358814 -0.08678138 0.045010563 -0.016630812
0002f0 f7 52 63 3b 47 57 59 3d 2b c2 52 bd d8 48 f8 bb
       0.0034686902 0.05306175 -0.051454704 -0.007577043
000300 c4 44 40 bd fe d8 97 3d 53 ae 5d bd d4 8a 06 3d
       -0.04694058 0.07414435 -0.054121327 0.03284724
000310 17 4c 6e bb 12 af 5d 3d 5c 69 89 bd 2f 80 1d 3d
       -0.003636127 0.05412204 -0.06709549 0.038452324
000320 69 f9 c9 bc 63 2d 96 3d d5 a2 35 3d 3f 02 aa bd
       -0.02465506 0.073328756 0.04434474 -0.0830121
000330 a9 eb 98 bd 36 3d 81 bd a8 6a 64 3d 96 8c c4 bb
       -0.074668236 -0.06310503 0.055765778 -0.0059982045
000340 8f d0 9a 3d 42 c1 5f bc 53 78 ef 3c a2 07 cd 39
       0.07559311 -0.013656916 0.02923218 0.00039106334
000350 62 62 22 bd 27 09 94 3c 97 bb 36 3d c6 86 80 3d
       -0.039644606 0.01807077 0.044612493 0.06275706
000360 5a 57 97 3c fd 9c 84 3d 4e ce 9a bb 55 3f 86 3d
       0.01847427 0.06475256 -0.0047243005 0.065550484
000370 3c 9c 99 bd 42 8b 98 bd 87 86 32 bd 23 c1 25 3d
       -0.075005025 -0.07448436 -0.043585327 0.040467393
000380 85 47 6a bd 1f 33 05 3d 8f 77 88 3d 61 86 60 3d
       -0.057197113 0.032519456 0.06663429 0.054815654
000390 69 a5 21 bd bf b4 ba bd dc c7 83 3c 01 8b ed 3c
       -0.039464388 -0.09116506 0.016086511 0.028996946
0003a0 92 7b 4c bd 3b 3e 41 3c de 25 41 bd c0 cd 55 3d
       -0.049922533 0.011794622 -0.047155254 0.05219817
0003b0 94 9c 52 bd 38 42 b5 bd 96 fc 2b bc b4 1e 8c bc
       -0.051418856 -0.08850521 -0.010497233 -0.017104484
0003c0 d7 18 8d bc 91 2c e6 bc fd 77 64 bd 12 f1 2c 3d
       -0.017223759 -0.028097423 -0.055778492 0.04222209
0003d0 bf 7b 4e 3b 7c cc 7d bc 3a 1c 7d 3c 1d 5e aa bd
       0.0031506864 -0.015490647 0.015448624 -0.08318732
0003e0 9a 61 27 3c 89 33 d0 3c 16 8b 2b 3c 41 f6 5b bd
       0.010216141 0.025415199 0.010470172 -0.053701643
0003f0 19 1e 87 bd d3 87 ab 39 8c c6 a7 bd a9 cd 0d 3c
       -0.065975375 0.0003271686 -0.08192167 0.00865499
